…
, save_dir='librispeech_exp/melle_flux08_poswei100', resume=None, save_interval=50000, log_interval=50, warmup_steps=10000, warmup_init_lr=1e-07, feature_name='fbank', using_rope=False, using_postnet=True, using_qwen2mlp=False, norm='layer', transformer_activation='relu', prenet_activation='relu', postnet_activation='tanh', exp_name='melle_flux08_poswei100', using_vad=False, log_dir='librispeech_exp/melle_flux08_poswei100/logs', local_rank=0)
2025-06-16 06:57:38,762 - INFO - MELLE(
  (encoder_layers): ModuleList(
    (0-11): 12 x EncoderLayer(
      (self_attn): Qwen2Attention(
        (q_proj): Linear(in_features=1024, out_features=1024, bias=True)
        (k_proj): Linear(in_features=1024, out_features=1024, bias=True)
        (v_proj): Linear(in_features=1024, out_features=1024, bias=True)
        (o_proj): Linear(in_features=1024, out_features=1024, bias=False)
        (norm): LayerNorm((1024,), eps=1e-05, elementwise_affine=True)
      )
      (self_attn_norm): LayerNorm((1024,), eps=1e-05, elementwise_affine=True)
      (ffn): MLP(
        (fc1): Linear(in_features=1024, out_features=4096, bias=True)
        (fc2): Linear(in_features=4096, out_features=1024, bias=True)
        (act_fn): ReLU()
        (norm): LayerNorm((4096,), eps=1e-05, elementwise_affine=True)
        (dropout): Dropout(p=0.1, inplace=False)
      )
      (ffn_norm): LayerNorm((1024,), eps=1e-05, elementwise_affine=True)
      (dropout): Dropout(p=0.1, inplace=True)
    )
  )
  (text_embedding): Embedding(32000, 1024, padding_idx=0)
  (mel_embedding): Mel_PreNet(
    (activation): ReLU()
    (prenet_l1): Linear(in_features=80, out_features=256, bias=True)
    (prenet_l2): Linear(in_features=256, out_features=256, bias=True)
    (prenet_lout): Linear(in_features=256, out_features=1024, bias=True)
  )
  (mel_position): Embedding(5000, 1024)
  (text_position): Embedding(5000, 1024)
  (mel_decoder): Mel_PostNet(
    (before_outs_and_logvar_l): Linear(in_features=1024, out_features=160, bias=True)
    (vae_decoder): Sequential(
      (0): Linear(in_features=80, out_features=256, bias=False)
      (1): Tanh()
      (2): Dropout(p=0.5, inplace=False)
      (3): Linear(in_features=256, out_features=256, bias=False)
      (4): Tanh()
      (5): Dropout(p=0.5, inplace=False)
      (6): Linear(in_features=256, out_features=80, bias=False)
      (7): Dropout(p=0.5, inplace=False)
    )
    (postnet): Sequential(
      (0): Conv1d(80, 256, kernel_size=(5,), stride=(1,), padding=(2,), bias=False)
      (1): BatchNorm1d(256, eps=1e-05, momentum=0.1, affine=True, track_running_stats=True)
      (2): Tanh()
      (3): Dropout(p=0.5, inplace=False)
      (4): Conv1d(256, 256, kernel_size=(5,), stride=(1,), padding=(2,), bias=False)
      (5): BatchNorm1d(256, eps=1e-05, momentum=0.1, affine=True, track_running_stats=True)
      (6): Tanh()
      (7): Dropout(p=0.5, inplace=False)
      (8): Conv1d(256, 256, kernel_size=(5,), stride=(1,), padding=(2,), bias=False)
      (9): BatchNorm1d(256, eps=1e-05, momentum=0.1, affine=True, track_running_stats=True)
      (10): Tanh()
      (11): Dropout(p=0.5, inplace=False)
      (12): Conv1d(256, 256, kernel_size=(5,), stride=(1,), padding=(2,), bias=False)
      (13): BatchNorm1d(256, eps=1e-05, momentum=0.1, affine=True, track_running_stats=True)
      (14): Tanh()
      (15): Dropout(p=0.5, inplace=False)
      (16): Conv1d(256, 80, kernel_size=(5,), stride=(1,), padding=(2,), bias=False)
      (17): BatchNorm1d(80, eps=1e-05, momentum=0.1, affine=True, track_running_stats=True)
      (18): Dropout(p=0.5, inplace=False)
    )
  )
  (stop_projection): Linear(in_features=1024, out_features=1, bias=True)
  (dropout): Dropout(p=0.1, inplace=True)
  (layer_norm): LayerNorm((1024,), eps=1e-05, elementwise_affine=True)
)
2025-06-16 06:57:50,727 - INFO - 开始训练轮次 1/100 开始训练步 1/400000
2025-06-16 06:57:56,570 - INFO - gradient overflow detected, ignoring gradient, setting loss scale to: 0.5
2025-06-16 06:57:56,874 - INFO - gradient overflow detected, ignoring gradient, setting loss scale to: 0.25
2025-06-16 06:57:57,182 - INFO - gradient overflow detected, ignoring gradient, setting loss scale to: 0.125
…
